web/model/output_dir/1DCNN_0809_15e-4.pt (torch, 848869 bytes, 6 tensors)

conv.weight f4 [32, 1, 1, 71]
0.07549614 -0.07234599 -0.15541576 0.18265785 -0.08597637 -0.14194806 0.18482332 0.13178852
-0.20526783 0.068771735 0.029767219 -0.18923388 -0.22089031 -0.23108394 0.0054233065 -0.27697015
-0.06349632 0.032974392 0.013809366 0.16024822 -0.10141431 0.2915079 -0.09320269 0.39043164
0.27226123 0.056478407 0.12814698 -0.024962833 0.07459034 -0.27302358 -0.10652023 0.1994933
0.09436019 0.07609866 -0.06048037 0.037488356 -0.06530627 0.02328045 0.15464848 0.13916586
0.1285448 -0.008082631 -0.10857139 -0.0246856 0.31424314 0.07766751 0.099737436 -0.059466716
-0.0630304 0.059777588 0.17139946 0.026093591 -0.001201668 -0.05428101 -0.007139614 0.109194554
0.17685847 0.05317273 -0.127839 -0.3173693 -0.085769765 -0.20480488 -0.1675215 -0.09645361
-0.003080113 -0.066459745 -0.039752096 -0.17237489 -0.02276593 -0.23184249 -0.24064733 0.013801503
-0.027397795 0.112978704 0.14107674 0.04924125 0.10475724 -0.032155994 -0.1544084 -0.12487916
0.38241202 -0.11889553 -0.051537927 0.20805064 0.19801088 0.026270034 -0.25219163 0.042627864
-0.010423487 0.15636781 -0.019521892 -0.19793116 -0.067801155 -0.10824118 0.043887332 0.0771418
0.1819375 0.21998584 0.16686288 -0.09987444 0.18233742 0.122191235 0.05973061 -0.16866095
-0.09852071 -0.15757342 0.12271179 -0.088386066 -0.10211106 0.08830532 0.064075135 -0.11050775
0.05895254 0.02820634 -0.083406255 -0.1835186 0.03604899 0.14386824 0.14504267 0.027750272
0.089490086 -0.20390704 0.1705501 -0.14756095 0.08818723 0.068064466 -0.07563545 -0.032245103
0.07891012 0.096452884 -0.16518754 -0.07799383 -0.09174482 -0.15177114 -0.06684284 -0.29102245
0.12162359 -0.23236518 -0.171162 -0.106872916 -0.007349312 -0.15165886 0.284116 -0.037809424
0.09421041 -0.13310237 0.122366086 -0.04342237 0.002679877 0.17283665 0.17710198 0.06553767
-0.06765545 0.22168589 -0.13398884 -0.029265678 0.13499725 -0.12545155 0.18354098 -0.032284424
0.07322914 -0.119312525 0.033110186 -0.053078588 -0.18764427 -0.2642762 0.24037339 -0.22222328
0.00013334508 -0.017415239 -0.2287995 0.0699169 0.1021087 -0.031582102 0.15689997 0.005427982
0.14823827 -0.12662779 0.010722272 0.081903495 0.018551541 -0.13524438 0.056121692 -0.17256473
-0.074864045 -0.17526348 -0.18564585 0.075615264 -0.07845627 0.06164912 0.16058634 -0.19525987
-0.007921339 -0.009930415 -0.40262955 0.05985548 0.085615836 0.34871212 -0.025840223 0.21908474
0.1364528 0.21154295 -0.1784625 -0.2210681 0.19589859 -0.14980544 -0.014083762 -0.1466726
0.09263851 -0.050274696 0.00015216983 -0.16355948 0.074657544 0.042146698 -0.3237857 0.13444419
0.22918457 0.07338943 0.011389224 -0.13480955 0.18529987 -0.13810675 -0.3298067 -0.16901964
0.25070953 -0.076898076 -0.00851355 0.24579708 0.13418911 -0.2676153 0.008840638 0.15537174
0.16659957 0.021316066 0.06257934 0.06991197 -0.2681518 -0.14373492 -0.17626986 -0.086699754
0.011981425 0.05012052 0.18116598 0.07197163 -0.16184227 -0.2339041 -0.0005143373 -0.28646412
0.009919295 0.10974727 -0.09186331 -0.23005351 0.14369804 -0.06574793 0.105731405 0.0386542
00000000: b89d 9a3d 222a 94bd 4f25 1fbe a90a 3b3e
00000010: 6114 b0bd d55a 11be 5342 3d3e 92f3 063e
00000020: bb31 52be 32d8 8c3d 62da f33c 87c6 41be
00000030: 1231 62be 45a1 6cbe feb5 b13b 08cf 8dbe
00000040: 5c0a 82bd 2810 073d ae40 623c 1c18 243e
00000050: 4eb2 cfbd 8640 953e 0de1 bebd a8e6 c73e
00000060: d365 8b3e e755 673d f638 033e db7e ccbc
00000070: d2c2 983d bfc9 8bbe 4727 dabd f947 4c3e
00000080: ea3f c13d 9dd9 9b3d 44ba 77bd 648d 193d
00000090: 4bbf 85bd a4b6 be3c 2c5c 1e3e 7f81 0e3e
000000a0: 40a1 033e 036d 04bc ad5a debd 7539 cabc
000000b0: 7ae4 a03e 2510 9f3d 2443 cc3d 5f93 73bd
000000c0: 1516 81bd 58d9 743d 5783 2f3e 3ac2 d53c
000000d0: 4a81 9dba c455 5ebd 6cf3 e9bb 65a1 df3d
000000e0: 631a 353e a6cb 593d 3ae8 02be 3b7e a2be
000000f0: 0fa8 afbd 5fb8 51be c28a 2bbe 7889 c5bd
00000100: b9db 49bb 0c1c 88bd 18d3 22bd 0b83 30be
00000110: 9e7f babc 1e68 6dbe 416c 76be b31f 623c
00000120: 5771 e0bc 6161 e73d 6c76 103e 31b1 493d
00000130: f78a d63d 01b6 03bd 3c1d 1ebe a5c0 ffbd
00000140: 82cb c33e 807f f3bd 6f19 53bd 3a0b 553e
00000150: 5dc3 4a3e 4134 d73c 431f 81be 8e9a 2e3d
00000160: 46c7 2abc e21e 203e 60ec 9fbc 77ae 4abe
00000170: 55db 8abd 8dad ddbd 34c3 333d 85fc 9d3d
00000180: d34d 3a3e f843 613e 1ade 2a3e f88a ccbd
00000190: a9b6 3a3e 663f fa3d 16a8 743d 75b5 2cbe
000001a0: 3ac5 c9bd ed5a 21be 5250 fb3d c103 b5bd
000001b0: 9a1f d1bd 6bd9 b43d d339 833d e351 e2bd
000001c0: 3878 713d fb10 e73c e6d0 aabd 4dec 3bbe
000001d0: 1ba8 133d 3252 133e 1186 143e 8a54 e33c
000001e0: 9446 b73d 02cd 50be afa4 2e3e 381a 17be
000001f0: 829b b43d 6265 8b3d c2e6 9abd 7113 04bd
00000200: a19b a13d 1789 c53d ec26 29be 3bbb 9fbd
00000210: b5e4 bbbd e569 1bbe e6e4 88bd e500 95be
00000220: ca15 f93d 23f1 6dbe 1745 2fbe 30e0 dabd
00000230: 7fd2 f0bb 764c 1bbe a777 913e 0ede 1abd
00000240: 63f1 c03d fd4b 08be 129b fa3d a8db 31bd
00000250: e0a0 2f3b 17fc 303e 395a 353e 9d38 863d
00000260: f18e 8abd a001 633e 5f34 09be 93be efbc
00000270: b83c 0a3e 5f76 00be 2bf2 3b3e ac3c 04bd
00000280: 29f9 953d 205a f4bd 8c9e 073d ef68 59bd
00000290: d225 40be 364f 87be 7124 763e 808e 63be
000002a0: 8cd2 0b39 67aa 8ebc 6b4a 6abe 9730 8f3d
000002b0: 5e1e d13d 3c5c 01bd 63aa 203e 37dd b13b
000002c0: c6cb 173e b7aa 01be 78ac 2f3c 05bd a73d
000002d0: 67f9 973c 817d 0abe dcdf 653d cfb4 30be
000002e0: 5252 99bd 4578 33be f219 3ebe 2ddc 9a3d
000002f0: aead a0bd ca83 7c3d bf70 243e 34f2 47be
00000300: 81c8 01bc 2eb3 22bc 7625 cebe 052b 753d
00000310: 5b57 af3d 658a b23e e0ae d3bc c057 603e
00000320: 48ba 0b3e b79e 583e e0be 36be ad5f 62be
00000330: a499 483e 9966 19be 94bf 66bc 5831 16be
00000340: 42b9 bd3d d7ec 4dbd c78f 1f39 237c 27be
00000350: 0ee6 983d 04a2 2c3d 3dc7 a5be bdab 093e
00000360: 5caf 6a3e 334d 963d de99 3a3c 840b 0abe
00000370: 40bf 3d3e db6b 0dbe 6cdc a8be 7c13 2dbe
00000380: 005d 803e bd7c 9dbd 6b7c 0bbc 3bb2 7b3e
00000390: df68 093e df04 89be 53d8 103c c519 1f3e
000003a0: 1499 2a3e 089f ae3c 9929 803d 022e 8f3d
000003b0: 314b 89be 3f2f 13be 1680 34be a48f b1bd
000003c0: bd4d 443c 2d4b 4d3d 9383 393e dd65 933d
000003d0: fbb9 25be 8e84 6fbe 98d4 06ba 6dab 92be
000003e0: 8a84 223c 2dc3 e03d d522 bcbd 2693 6bbe
000003f0: 9425 133e daa6 86bd b589 d83d de53 1e3d

conv.bias f4 [32]
0.07134786 -0.021320224 0.105473354 -0.14532974 -0.04574366 0.038029093 0.11800411 0.095339015
-0.10446174 -0.061276466 -0.09641207 -0.005117538 0.09065842 -0.00029206087 -0.10329554 -0.07044633
-0.01120904 -0.11059998 -0.015808975 0.06914997 -0.03978387 -0.07886753 0.07011861 0.009523909
-0.15862869 0.06751343 -0.11057419 -0.015063658 0.0025010442 -0.14100115 -0.04896604 0.16050723
00000000: d41e 923d c0a7 aebc 6a02 d83d 52d1 14be
00000010: b45d 3bbd 65c4 1b3d 24ac f13d 1a41 c33d
00000020: 09f0 d5bd 08fd 7abd b173 c5bd 05b1 a7bb
00000030: 1fab b93d bf1f 99b9 9d8c d3bd 2a46 90bd
00000040: 1fa6 37bc 3e82 e2bd d381 81bc 809e 8d3d
00000050: 69f4 22bd 4d85 a1bd 599a 8f3d 2b0a 1c3c
00000060: 8f6f 22be 7b44 8a3d b974 e2bd 90cd 76bc
00000070: 8fe8 233b 9b62 10be 9d90 48bd 025c 243e

hidden1.weight f4 [128, 1600]
-0.005382811 -0.011542455 0.009171728 -0.031897426 -0.026285581 -0.016030755 -0.0017229698 -0.007794726
0.014170823 -0.009218631 0.0085167345 0.011062194 0.029729957 -0.013103403 -0.0041642413 -0.024887081
-0.030597603 0.018836698 -0.008515834 0.010859315 -0.0025084233 0.03146818 -0.026854454 -0.022746744
-0.0012733953 -0.012069102 -0.011042882 -0.004666387 0.00854433 0.013790999 0.01170397 0.023291942
0.0049559767 -0.012349904 0.006406671 0.0076697124 -0.008735547 -0.026480053 0.023655018 -0.003074845
-0.029017312 -0.010909476 -0.031614546 0.02643729 0.010340628 0.014506715 0.0036718596 0.0060773725
0.015764 -0.01871786 -0.0067596654 -0.0041445387 0.010448253 -0.016468972 -0.02121629 -0.02721178
0.018090865 -0.015539484 -0.018076709 -0.0013740516 0.01245813 -0.0046466864 0.025929993 0.027621446
-0.021646544 -0.018292295 -0.00064527197 0.0129036745 -0.031830754 0.001754094 -0.02847063 -0.0025908328
-0.010211361 -0.01096912 -0.011651026 -0.016859207 0.00060977874 0.012126987 -0.020407088 -0.027962701
-0.004392026 0.01413918 -0.03233112 0.024345003 -0.012800166 -0.0054291706 -0.002475236 -0.003442139
0.022739021 -0.014974893 -0.007422807 -0.00019908513 0.010960053 -0.013081352 0.01587498 0.007963457
0.0019402949 0.005761348 0.004886112 0.018049203 0.016104897 -0.018099995 0.027499637 -0.004045932
-0.0038480726 -0.004040323 0.01013002 -0.0058443346 0.0010713285 -0.00048360068 -0.031640094 -0.02035023
-0.022737514 -0.021987459 -0.02468844 -0.014686049 0.0018209981 0.00681796 -0.00018804501 0.010170979
-0.012958901 -0.018992776 -0.030295972 0.014298465 -0.017359784 -0.0065442934 -0.01939008 -0.030300336
-0.020612534 -0.03010062 -0.0025449477 -0.0070052342 -0.0012513642 -0.030949224 0.022775207 -0.003948366
0.013237733 -0.011648058 0.016168041 0.016359903 -0.02557153 0.010145354 -0.022014897 -0.022689227
-0.010056377 0.0024053091 -0.020680593 -0.021092463 0.031340253 0.032004416 -0.028804926 0.012897698
-0.022612564 0.012741206 -0.028765004 -0.015819008 -0.018112043 -0.008820635 -0.0129935695 0.009183644
-0.018604351 0.006665691 0.0040942924 -0.022121223 -0.032931957 0.0021182294 0.004041537 -0.027617412
0.015599612 -0.02542307 -0.006431173 -0.0127519565 0.0005781294 0.009602183 0.008456385 -0.013415621
-0.0020441962 -0.001866359 -0.019710608 -0.031604275 -0.032404996 -0.031133242 -0.0005588723 -0.023234347
-0.029145733 -0.023830978 0.013370844 0.012840426 -0.0062242076 0.008240338 0.016031226 0.005432076
-0.010555321 0.013181148 0.011448633 -0.03276326 -0.002092001 -0.030014347 0.02939122 0.009639018
-0.012968114 -0.015095762 -0.01761711 -0.0037919153 -0.018938199 -0.019146742 0.006964632 -0.01554764
-0.0141782025 -0.0035851575 -0.015572383 -0.02231775 -0.012421597 -0.032339413 -0.016252475 0.0035464931
0.016138094 -0.013902605 0.015362151 0.0010790164 -0.008051019 0.012341848 0.00082906766 -0.026612543
-0.00955215 0.013673766 -0.029544095 0.009069495 0.008551972 0.0009811244 0.027225241 0.0005989477
0.029990917 -0.03163655 -0.0031814657 -0.025790762 -0.0018694822 -0.017334662 -0.028090816 -7.213356e-05
0.011996576 0.01302699 -0.0077296654 0.0031381387 -0.020263957 -0.020079976 0.016553644 -0.021984397
0.0023425326 0.016083814 -0.023062296 0.0058643376 -0.01598606 0.0116149355 -0.029272774 -0.0049050488
00000000: 4b62 b0bb 911c 3dbc 0445 163c e0a6 02bd
00000010: dc54 d7bc ee52 83bc 46d5 e1ba e76a ffbb
00000020: bd2c 683c be09 17bc c689 0b3c 343e 353c
00000030: 3d8c f33c a8af 56bc 3074 88bb fedf cbbc
00000040: d3a7 fabc 6b4f 9a3c ff85 0bbc 45eb 313c
00000050: 5c64 24bb c7e4 003d dffd dbbc 6157 babc
00000060: 0ee8 a6ba 7cbd 45bc 34ed 34bc 7ee8 98bb
00000070: 84fd 0b3c a4f3 613c 02c2 3f3c bece be3c
00000080: bf65 a23b 4057 4abc 0def d13b 3652 fb3b
00000090: 8a1f 0fbc b2ec d8bc 2bc8 c13c 5783 49bb
000000a0: b7b5 edbc a9bd 32bc 417e 01bd 0493 d83c
000000b0: bd6b 293c 93ad 6d3c 95a3 703b b224 c73b
000000c0: 8123 813c 3356 99bc 2f80 ddbb e9ce 87bb
000000d0: 262f 2b3c f0e9 86bc c9cd adbc 3deb debc
000000e0: 4b33 943c 5299 7ebc 9b15 94bc 8519 b4ba
000000f0: 2f1d 4c3c 3b43 98bb 236b d43c 5f46 e23c
00000100: 1854 b1bc b9d9 95bc 7827 29ba ef69 533c
00000110: f760 02bd a1e9 e53a 3d3b e9bc f6ca 29bb
00000120: 8d4d 27bc d3b7 33bc f2e3 3ebc 521c 8abc
00000130: 8fd9 1f3a 45b0 463c c42c a7bc 0912 e5bc
00000140: fcea 8fbb 05a8 673c a36d 04bd 2c6f c73c
00000150: cab7 51bc 2fe7 b1bb 9237 22bb 8295 61bb
00000160: 2f47 ba3c 4159 75bc 053b f3bb 82c1 50b9
00000170: cb91 333c 2b53 56bc 3f0c 823c 2979 023c
00000180: 7e51 fe3a b1c9 bc3b ae1b a03b ecdb 933c
00000190: 6bee 833c 7146 94bc eb46 e13c bd93 84bb
000001a0: f22f 7cbb b064 84bb 62f8 253c d581 bfbb
000001b0: d26b 8c3a c98b fdb9 0b99 01bd 87b5 a6bc
000001c0: 0644 babc 0b1f b4bc 693f cabc c19d 70bc
000001d0: 8fae ee3a 3269 df3b f32d 45b9 2ea4 263c
000001e0: 9251 54bc bd96 9bbc 422f f8bc 1c44 6a3c
000001f0: 1b36 8ebc 8371 d6bb f2d7 9ebc 6938 f8bc
00000200: 9edb a8bc 9395 f6bc 23c9 26bb 2a8c e5bb
00000210: d104 a4ba 3a89 fdbc 1293 ba3c 4b61 81bb
00000220: 14e3 583c 7fd7 3ebc d772 843c 3405 863c
00000230: 637b d1bc b338 263c 9658 b4bc c2de b9bc
00000240: 81c3 24bc 64a2 1d3b 596a a9bc 1aca acbc
00000250: a35e 003d 1017 033d 4ff8 ebbc de50 533c
00000260: fc3d b9bc 7ec0 503c 96a4 ebbc dd96 81bc
00000270: b55f 94bc 6d84 10bc fbe2 54bc ff76 163c
00000280: 2768 98bc de6b da3b 6a29 863b 9137 b5bc
00000290: a9e3 06bd fed1 0a3b df6e 843b e93d e2bc
000002a0: 8495 7f3c 0b44 d0bc 97bc d2bb 95ed 50bc
000002b0: 9b8d 173a 7952 1d3c a68c 0a3c 31cd 5bbc
000002c0: ecf7 05bb 9ea0 f4ba 2478 a1bc 7c73 01bd
000002d0: 1abb 04bd 240b ffbc 4981 12ba f555 bebc
000002e0: 08c3 eebc 2f39 c3bc 6211 5b3c a660 523c
000002f0: 70f4 cbbb 7c02 073c eb53 833c 8eff b13b
00000300: 3af0 2cbc bef5 573c 0c93 3b3c c532 06bd
00000310: f419 09bb a6e0 f5bc dbc5 f03c f9ec 1d3c
00000320: 3678 54bc 3754 77bc c251 90bc c881 78bb
00000330: 4824 9bbc a1d9 9cbc 9137 e43b 87bb 7ebc
00000340: b14b 68bc f6f4 6abb 4f23 7fbc b7d3 b6bc
00000350: f483 4bbc 5576 04bd e923 85bc 486c 683b
00000360: 0934 843c c0c7 63bc 88b1 7b3c c86d 8d3a
00000370: 6ce8 03bc 7635 4a3c ca55 593a 8c02 dabc
00000380: 9f80 1cbc ee07 603c 7506 f2bc 3898 143c
00000390: 921d 0c3c 1299 803a 7807 df3c b302 1d3a
000003a0: 83af f53c 5495 01bd 2380 50bb 2647 d3bc
000003b0: 6a09 f5ba 6c01 8ebc b61e e6bc 6946 97b8
000003c0: 498d 443c 286f 553c 2249 fdbb 3ba9 4d3b
000003d0: 9900 a6bc c37e a4bc 829b 873c 9f18 b4bc
000003e0: 2d85 193b 34c2 833c 24ed bcbc a129 c03b
000003f0: 33f5 82bc 924c 3e3c 75cd efbc 88ba a0bb

hidden1.bias f4 [128]
0.0052592773 -0.0119208805 0.0070901066 0.0013332224 -0.00045358785 0.02011414 0.025730753 -0.01386885
-0.00517314 0.0073077064 -0.0023338033 0.008243525 0.00023974234 0.007993893 -0.02091885 0.041909598
-0.019841585 -0.02385005 0.02301122 -0.007327431 -0.0030696206 -0.022876738 0.010813237 0.010959881
-0.0063932617 -0.00013796281 0.0063725514 0.010985294 -0.020642215 0.0024612965 -0.009139781 0.032995876
-0.021432798 -0.022297084 -0.0137154 0.03648687 0.025384197 -0.015815387 -0.031355053 0.024873082
-0.009551999 -0.020921111 0.010391743 0.021265373 -0.0054085823 0.013760853 0.031480152 0.011641029
-0.042880535 -0.010578408 0.031382393 -0.020063434 0.0011089307 0.015061223 -0.0038592422 0.004368944
0.0073234662 0.018105058 0.01382235 -0.039920308 -0.011153236 -0.0026043283 0.013423279 0.005655879
0.0026522414 0.027665254 0.024154589 0.023805382 -0.006805012 -0.020824846 -0.07409467 -0.0010459344
0.022120455 -0.020692227 -0.01531688 -0.06261517 0.008375859 0.015002766 -0.0009799276 -0.011146617
-0.031718213 0.008072156 -0.015025148 0.0065814327 -0.010569306 0.023744866 -0.0063404017 -0.00026949943
-0.009306618 0.0040554795 0.00063739414 0.010358199 -0.023003815 -0.035047017 0.030899735 0.011097591
0.007428128 -0.01932055 -0.010080521 0.0020053107 0.0031673207 -0.007388196 0.004158208 0.026706506
-0.0017521746 -0.014354628 0.028309966 0.00093863986 -0.0045087165 0.003863633 0.035757102 -0.015495622
-0.026324697 0.020831775 0.002913291 -0.009416828 -0.020627376 0.027891632 0.00043141155 -0.027205342
0.01945761 -0.016374245 -0.01938477 0.0052755265 0.0040602116 -0.015297101 -0.0124337645 -0.028648946
00000000: 0456 ac3b cc4f 43bc 2054 e83b 85bf ae3a
00000010: 88cf edb9 69c6 a43c 4dc9 d23c 2c3a 63bc
00000020: 7283 a9bb 7c75 ef3b b9f2 18bb da0f 073c
00000030: 5863 7b39 d1f8 023c 025e abbc 66a9 2b3d
00000040: d28a a2bc 2e61 c3bc 0782 bc3c f21a f0bb
00000050: b02b 49bb ff67 bbbc 012a 313c 1391 333c
00000060: 917e d1bb 1caa 10b9 d6d0 d03b aafb 333c
00000070: dd19 a9bc b44d 213b 05bf 15bc af26 073d
00000080: d693 afbc 60a8 b6bc 8fb6 60bc 4273 153d
00000090: 85f2 cf3c 458f 81bc 286e 00bd a2c2 cb3c
000000a0: fd7f 1cbc c062 abbc 2142 2a3c b834 ae3c
000000b0: 7a3a b1bb 3375 613c 55f1 003d 04ba 3e3c
000000c0: 80a3 2fbd 0f51 2dbc d38a 003d 125c a4bc
000000d0: 8a59 913a 59c3 763c 57eb 7cbb 5c29 8f3b
000000e0: b0f9 ef3b 0f51 943c 2377 623c 7a83 23bd
000000f0: 10bc 36bc 61ad 2abb 50ed 5b3c f454 b93b
00000100: 3ad1 2d3b 3ea2 e23c d8df c53c 8103 c33c
00000110: 94fc debb de98 aabc f2be 97bd bc17 89ba
00000120: f535 b53c bf82 a9bc a7f3 7abc 623c 80bd
00000130: e63a 093c 29ce 753c ea70 80ba 4da0 36bc
00000140: f5ea 01bd 1441 043c 0a2c 76bc 0fa9 d73b
00000150: e22a 2dbc 9884 c23c 25c3 cfbb 9a4b 8db9
00000160: c97a 18bc d4e3 843b cc16 273a 6fb5 293c
00000170: 7f72 bcbc 768d 0fbd 7121 fd3c acd2 353c
00000180: a767 f33b 2146 9ebc c528 25bc 886b 033b
00000190: d392 4f3b ae18 f2bb 9441 883b 9ac7 da3c
000001a0: 39a9 e5ba ac2f 6bbc 4dea e73c 0e0f 763a
000001b0: dbbd 93bb 0135 7d3b 0a76 123d 59e1 7dbc
000001c0: e4a6 d7bc 66a7 aa3c eaec 3e3b 0a49 1abc
000001d0: befa a8bc fe7c e43c 142f e239 bddd debc
000001e0: 9165 9f3c 4823 86bc cfcc 9ebc 53de ac3b
000001f0: 860b 853b b1a0 7abc fdb6 4bbc 32b1 eabc

hidden2.weight f4 [34, 128]
-0.03472907 -0.06707621 0.0480111 -0.18596792 0.06371042 -0.1879715 0.079825744 -0.13820675
0.017313555 -0.14440835 -0.076046444 -0.0050575677 -0.072174855 0.088339984 0.14294289 0.079511166
-0.02129783 -0.06582768 0.0043709236 0.06846826 0.026549747 -0.035652764 -0.1103119 0.030142352
-0.037312325 0.13865545 -0.21918753 -0.15498786 0.01419266 0.020017024 -0.034032475 0.013606314
0.016376128 -0.13302761 0.0907462 -0.050176136 0.13620597 -0.013109277 -0.017111616 0.108098
-0.06708593 -0.004083253 0.103010334 0.1373868 -0.054106228 0.07390762 -0.055920005 0.081291355
0.0038291004 0.06702782 0.09047577 0.091965966 0.16450319 -0.04103895 -0.015029729 0.08347437
0.006362074 -0.021915263 -0.032797657 0.06822039 0.029358461 -0.15757671 0.13819364 -0.026824335
-0.23709603 0.14382817 -0.10343315 0.073001035 0.12428767 -0.030479968 -0.032488503 0.026511472
-0.010853976 0.12358686 0.06115263 -0.065355584 -0.07028225 0.02437347 -0.045786966 0.030045057
0.006937961 -0.02846972 0.03563794 0.13942455 0.040855393 0.0019234271 0.034935627 -0.05734307
0.12650831 0.049352493 0.044426177 -0.14109631 -0.017549202 0.05832224 -0.2144625 -0.07109896
-0.07829123 -0.036373384 -0.04769232 0.010044307 -0.049721338 -0.028932767 0.12836008 0.11542564
-0.033395424 -0.07592393 0.005814716 0.08374245 0.021603087 -0.034794636 0.09383911 -0.07704854
-0.008478289 0.070041664 -0.040518183 -0.12671706 -0.029422438 0.068177834 0.09761566 -0.038429584
0.10143163 0.117454775 0.07367843 -0.042950574 0.040756073 0.028220894 0.06276157 -0.05011736
-0.023464002 0.012249589 -0.037532236 0.096708685 0.049143963 -0.029832006 -0.28947347 0.16963652
0.08477497 0.13470703 -0.06777804 -0.012151956 -0.057284806 -0.20753154 -0.17633222 -0.016824147
-0.012001745 -0.08107487 0.009828929 -0.21225496 -0.11004214 0.004112642 -0.06900917 0.07448604
0.0041105356 0.03387726 -0.12819064 -0.16130194 -0.038325366 0.02074587 0.004121167 0.13810186
-0.07021734 0.15399863 -0.18322423 0.15090628 0.16621278 -0.031250812 -0.060082342 -0.07613804
0.021224635 -0.005971913 -0.28982598 -0.12588188 -0.011840931 -0.05607408 0.12874515 -0.043477535
-0.004776241 0.037889455 -0.15254754 -0.021672698 0.05574267 0.10512945 0.0144195575 0.075603254
0.07016764 -0.05218849 0.0035363976 0.015345166 0.078293316 -0.20400819 -0.042766538 0.053642645
-0.12708114 0.1006734 -0.06693439 0.14014652 -0.16892096 0.046628956 0.11718988 -0.24179453
-0.019328175 -0.045522254 0.028253833 0.12586464 -0.057022806 0.07790367 0.061560657 0.0006841227
0.013788222 0.04590358 -0.02184165 -0.099604644 -0.06247312 0.109758146 0.114332065 -0.11982886
-0.053796113 0.03506641 0.024347978 0.040488597 0.0031933072 -0.060750753 -0.080643006 0.14098704
-0.05737627 -0.0820217 0.05670342 -0.026025841 0.08751869 0.040194314 -0.12345749 0.09969971
-0.036046237 0.08719566 0.11680661 0.03335704 0.12823033 -0.018484542 0.14453448 -0.03841901
-0.029700993 0.09765099 -0.043469585 0.028239636 -0.019135471 0.12578258 -0.067424715 -0.033098824
-0.029433 0.054867126 -0.068394154 -0.05293132 -0.2234273 -0.021404084 0.039645996 -0.07885653
00000000: 1240 0ebd 415f 89bd 4aa7 443d 606e 3ebe
00000010: 9c7a 823d 9a7b 40be ae7b a33d 1286 0dbe
00000020: 28d5 8d3c c8df 13be 3dbe 9bbd f4b9 a5bb
00000030: 69d0 93bd 98eb b43d 9f5f 123e c0d6 a23d
00000040: c978 aebc aad0 86bd f739 8f3b 1639 8c3d
00000050: db7e d93c a208 12bd 35eb e1bd 18ed f63c
00000060: cfd4 18bd b2fb 0d3e b272 60be 23b5 1ebe
00000070: 5588 683c befa a33c a365 0bbd 04ed 5e3c
00000080: 3b27 863c 6438 08be 25d9 b93d 7e85 4dbd
00000090: 9479 0b3e 4bc8 56bc a92d 8cbc 7c62 dd3d
000000a0: 5964 89bd cfcc 85bb 15f7 d23d 20af 0c3e
000000b0: 7e9e 5dbd e15c 973d 600c 65bd 157c a63d
000000c0: a5f1 7a3b e245 893d 5c4b b93d a758 bc3d
000000d0: 8673 283e 7518 28bd 413f 76bc 9cf4 aa3d
000000e0: f278 d03b a387 b3bc d656 06bd 22b7 8b3d
000000f0: 2881 f03c ca5b 21be a282 0d3e b5be dbbc
00000100: 4dc9 72be b147 133e c2d4 d3bd 9181 953d
00000110: 898a fe3d 20b1 f9bc aa12 05bd 962e d93c
00000120: e0d4 31bc 1c1b fd3d 2e7b 7a3d 26d9 85bd
00000130: 24f0 8fbd dfaa c73c 1d8b 3bbd 0d21 f63c
00000140: d657 e33b 5539 e9bc 17f9 113d 4fc5 0e3e
00000150: fc57 273d 811b fc3a a918 0f3d 91e0 6abd
00000160: 658b 013e d725 4a3d 39f8 353d 8d7b 10be
00000170: 58c3 8fbc 4de3 6e3d 0f9c 5bbe 559c 91bd
00000180: 2757 a0bd 42fc 14bd 0659 43bd e190 243c
00000190: 9aa8 4bbd 6904 edbc d370 033e 4764 ec3d
000001a0: a4c9 08bd 017e 9bbd 6089 be3b 2981 ab3d
000001b0: f5f8 b03c d284 0ebd b82e c03d a0cb 9dbd
000001c0: 85e8 0abc 0172 8f3d 65f6 25bd 1ec2 01be
000001d0: 5307 f1bc d2a0 8b3d b8ea c73d 5768 1dbd
000001e0: 63bb cf3d 218c f03d b7e4 963d f1ec 2fbd
000001f0: d7ef 263d 812f e73c 2389 803d dc47 4dbd
00000200: 9437 c0bc 80b2 483c 67bb 19bd 340f c63d
00000210: 2e4b 493d 4062 f4bc de35 94be 32b5 2d3e
00000220: 809e ad3d a4f0 093e 37cf 8abd ff18 47bc
00000230: 79a3 6abd 2683 54be 6f90 34be cbd2 89bc
00000240: f8a2 44bc 950a a6bd 8409 213c 5d59 59be
00000250: c65d e1bd 57c3 863b ae54 8dbd 238c 983d
00000260: acb1 863b e2c2 0a3d 6844 03be 562c 25be
00000270: 0ffb 1cbd 3ef3 a93c db0a 873b 936a 0d3e
00000280: 1cce 8fbd d1b1 1d3e 229f 3bbe 2d87 1a3e
00000290: af33 2a3e da00 00bd e718 76bd 43ee 9bbd
000002a0: 49df ad3c 0ab0 c3bb 1264 94be 2ee7 00be
000002b0: 7700 42bc efad 65bd c5d5 033e 8015 32bd
000002c0: 0382 9cbb f931 1b3d 6c35 1cbe f18a b1bc
000002d0: 6d52 643d 1c4e d73d 0240 6c3c e1d5 9a3d
000002e0: 0db4 8f3d 99c3 55bd e8c2 673b 4b6a 7b3c
000002f0: 3f58 a03d 86e7 50be f72b 2fbd 64b8 5b3d
00000300: 8f21 02be db2d ce3d e614 89bd 9282 0f3e
00000310: 9ef9 2cbe 01fe 3e3d 3f01 f03d fc98 77be
00000320: 1f56 9ebc 8b75 3abd 9574 e73c a9e2 003e
00000330: bf90 69bd f68b 9f3d 0727 7c3d b256 333a
00000340: ffe7 613c 6405 3c3d 43ed b2bc 85fd cbbd
00000350: d0e3 7fbd e1c8 e03d ee26 ea3d d568 f5bd
00000360: 5059 5cbd cca1 0f3d 6975 c73c 5fd7 253d
00000370: ce46 513b c8d5 78bd 2928 a5bd e85e 103e
00000380: 6103 6bbd fefa a7bd d841 683d 2534 d5bc
00000390: 003d b33d cba2 243d 48d7 fcbd 5d2f cc3d
000003a0: 38a5 13bd a393 b23d 4e38 ef3d 64a1 083d
000003b0: d04e 033e e56c 97bc d900 143e 405d 1dbd
000003c0: 7f4f f3bc 3efd c73d 2a0d 32bd cf56 e73c
000003d0: fec1 9cbc 26cd 003e f815 8abd a292 07bd
000003e0: 7a1d f1bc 5abc 603d 3c12 8cbd 83ce 58bd
000003f0: 20ca 64be 9e57 afbc d763 223d 887f a1bd

hidden2.bias f4 [34]
-0.023003617 0.03884609 0.01207973 0.067490414 -0.069251224 -0.052738026 0.103783175 -0.047005475
-0.0346995 -0.041488122 0.06986576 -0.009094156 -0.05879647 0.037003607 0.043044202 0.08859761
0.072165795 -0.04719504 0.064738326 -0.009327904 0.058404185 -0.03859116 0.014300298 -0.008632563
0.09062036 0.0310402 -0.0059639793 0.09041244 0.044246484 -0.04007067 -0.032577347 0.05693769
-0.03841861 -0.061038215
00000000: 1572 bcbc 141d 1f3d 0fea 453c 6a38 8a3d
00000010: 96d3 8dbd d403 58bd 468c d43d d088 40bd
00000020: 1021 0ebd 73ef 29bd c815 8f3d a8ff 14bc
00000030: 91d4 70bd 1891 173d 1e4f 303d aa72 b53d
00000040: a9cb 933d 964f 41bd 8795 843d 11d4 18bc
00000050: 3a39 6f3d c411 1ebd cc4b 6a3c 986f 0dbc
00000060: 2b97 b93d 0448 fe3c 7c6d c3bb 282a b93d
00000070: cd3b 353d 2521 24bd d36f 05bd 7f37 693d
00000080: d55c 1dbd 3503 7abd
